cnn.pt (torch, 120736 bytes, 6 tensors)

weight f4 [16, 1, 5, 5]
000000 c0 a5 b9 bd 86 96 90 bc 3b c1 71 3d bb ec e0 bd
       -0.090648174 -0.0176499 0.05902217 -0.10982653
000010 d1 6a 69 be c5 18 42 3e ef 2f 41 be 00 4a 5b be
       -0.22794653 0.18954761 -0.18865941 -0.21414948
000020 d9 41 87 be fa ed 78 be 51 e5 b3 bd 2f a7 13 3e
       -0.26417425 -0.24309531 -0.08783973 0.14419244
000030 9d 1e f1 bd 99 c9 2a be 3c 08 51 3e 3a 9b 03 3e
       -0.11773417 -0.16678466 0.20413297 0.12852183
000040 ca 6f dc 3d 08 87 74 3e be 9a 76 3e 10 c4 c3 3a
       0.107635096 0.23879635 0.24082467 0.001493575
000050 aa 07 21 3e d8 36 65 3e 6d 9d 32 3e 42 f0 90 3e
       0.1572558 0.22384202 0.17442866 0.28308302
000060 e5 d4 1a 3e b3 eb cf 3d 2b ab 5f 3e 89 aa f2 bd
       0.15120275 0.10152378 0.21842639 -0.11848933
000070 87 16 8e be 1a 23 6e be cb 91 c0 3e b9 54 9c 3c
       -0.27751562 -0.23255578 0.3761123 0.019083368
000080 a1 1e 02 be 55 22 d6 be 8d 3e 22 3d 5c aa 38 3e
       -0.12706997 -0.41823068 0.039610434 0.18033737
000090 26 1a cc bc e0 ed 0e be c7 07 e8 be 3f 73 53 3d
       -0.024914812 -0.1395793 -0.45318434 0.05162358
0000a0 45 09 8d 3e bc 10 05 3d 34 30 14 bf 54 b8 70 be
       0.27546135 0.032486662 -0.5788605 -0.23507816
0000b0 05 cc c1 3d 28 88 81 3d 97 91 88 be 5b 18 e8 be
       0.09462742 0.06324798 -0.26673576 -0.45331082
0000c0 1f bb 84 3d c2 8b a1 3d 09 17 12 bd 42 45 22 be
       0.06481003 0.07887985 -0.0356665 -0.15846732
0000d0 6c ee 66 be 53 55 25 be 13 20 04 be 29 c6 d1 3d
       -0.22551888 -0.1614583 -0.1290286 0.10242874
0000e0 df e7 0e 3d 5f 3c 8a be 0b df 3e be 9e 69 93 be
       0.0348891 -0.26999184 -0.18639772 -0.28791517
0000f0 a3 44 3d 3e 8c 09 18 3d db 34 7e bd 67 09 72 3d
       0.18483214 0.03711848 -0.062062126 0.059090998
000100 90 6c 91 38 c9 e7 76 3e fb 78 bf 3d 3a d7 06 3e
       6.93436e-05 0.24111857 0.09349247 0.1316804
000110 5b a3 d9 3d ce 15 a5 3e af c7 9d 3c df 8e 7e 3e
       0.10626861 0.32243198 0.019260256 0.24859188
000120 9e 4a 43 3e 3b 92 62 3e e7 c5 87 3d e8 3d 77 3e
       0.19071433 0.22126095 0.06629544 0.24144709
000130 46 a5 fd 3d 64 ba 58 3c 38 37 9b 3c 15 bb 9b 3e
       0.12385039 0.013228033 0.018947229 0.3041617
000140 5a ea 72 3e 66 e1 8a 3e 19 e8 79 3e 7b f0 f8 3c
       0.2372221 0.2712509 0.24404944 0.030388108
000150 f6 3e 88 3e 4f dd 5f 3d 79 1d 28 be 8d e4 08 3b
       0.26610535 0.054654416 -0.16417493 0.002088818
000160 9c cb 46 be 7b 23 57 be 8e 13 78 3d 30 18 13 be
       -0.19413608 -0.21009628 0.060565524 -0.14364696
000170 a3 2b b1 be 27 d9 28 be aa 5f 81 be 52 ab 10 3e
       -0.34603605 -0.16489087 -0.25268298 0.14127854
000180 cf 07 d3 ba 7b e5 22 3e 89 40 5f bd 8f 8d 5a 3d
       -0.001610035 0.15907852 -0.054504905 0.053357657
000190 a4 de 23 3d f5 ee 80 3e a6 b5 7a 3e da 7b 44 3e
       0.04000725 0.2518231 0.24483356 0.1918787
0001a0 76 67 b6 3e 80 d5 7c 3e 59 df 89 3d ed 50 0a bc
       0.3562581 0.24690819 0.06732053 -0.008442146
0001b0 45 d5 fd 3b a4 0b 4c bd 1d 58 0e be 73 61 8c bd
       0.007746371 -0.04981579 -0.139008 -0.068545245
0001c0 fe 06 01 3e e2 70 26 3e 41 9d d3 3c 5c ca b0 be
       0.12600324 0.16253999 0.02583182 -0.34529388
0001d0 60 f5 48 bd 10 7f 81 be be 54 c8 be e8 67 b2 be
       -0.049062133 -0.25292253 -0.39127153 -0.348449
0001e0 ea e3 30 be 21 4d c9 be 54 ed a0 be 30 7a 2e be
       -0.17274442 -0.39316657 -0.31431067 -0.17038798
0001f0 e6 20 a0 3d 3c 97 0f 3e 5c db c5 3c a3 60 55 be
       0.07818775 0.14022535 0.02415245 -0.20837645
000200 51 f3 a9 be 49 7d 76 be c6 84 7a 3e c7 6a db 3d
       -0.33193448 -0.2407123 0.24464712 0.107137255
000210 75 ef 1f bd aa bd a8 be c9 bc 80 be cb 7d 21 3e
       -0.039046723 -0.32957202 -0.25144032 0.15770642
000220 3f 6f 88 3e 5e ed a8 3d 6d d9 00 3b 0a 50 5f be
       0.26647374 0.08248399 0.0019660846 -0.21807876
000230 5f ed c3 3d 20 93 80 3e 48 6d af 3e 32 2f 92 bd
       0.09566759 0.25112247 0.34263062 -0.07137908
000240 44 1c 13 3e c8 4d d2 bd 0c 20 5d 3e b4 55 94 3e
       0.14366251 -0.10268742 0.21594256 0.28971636
000250 c2 bb 15 3e 54 68 56 3e fe 97 b1 bd 72 5c 4c 3e
       0.14622405 0.20938236 -0.08671568 0.1995714
000260 c6 bc 9c 3b 17 b4 76 3d f7 6f 38 3e fb 9e 1f 3e
       0.0047832457 0.06023034 0.18011461 0.1558799
000270 d5 d2 43 3e 31 1e ea bd e6 ec bd bd df be 2c 3d
       0.19123395 -0.1143154 -0.092737004 0.042174216
000280 33 e3 ff 3d 16 ad 57 3d 16 02 93 3e c8 3c 55 3e
       0.12494507 0.052655302 0.2871253 0.20823967
000290 df 2d 08 3e 8a cb 93 3e c2 fd b1 bc 29 ca 49 3e
       0.13298748 0.28866225 -0.021727446 0.19706024
0002a0 88 f0 cc bd 35 e5 5d be 01 31 57 3e 8c c4 16 bd
       -0.10006815 -0.21669467 0.21014787 -0.036808535
0002b0 76 5a eb 3d 87 cb 7a be fe 21 a6 be 4d d3 3c be
       0.114918634 -0.24491702 -0.3244781 -0.1843998
0002c0 5d 03 46 bc 8a 1d 23 3e 60 7d 95 3e 1e 7c 81 bd
       -0.012085763 0.15929237 0.29197216 -0.063225016
0002d0 a2 7c 27 be 04 ed 00 3d cc e0 4f 3e 14 b1 ae bc
       -0.16356137 0.031476036 0.20300597 -0.021324672
0002e0 75 0f 00 bd 2a 57 1b 3e 5d 5c b4 3e a5 c3 a1 3e
       -0.03126474 0.15169969 0.35226718 0.31594577
0002f0 1c 4d d0 bd 97 6c a0 bd b5 a3 0c 3e b5 b5 c9 3c
       -0.101709574 -0.07833212 0.13734324 0.024622777
000300 82 f8 ba bc cb 6b 20 3e 11 93 96 be 11 c4 96 3e
       -0.022823576 0.1566612 -0.29409078 0.29446462
000310 54 4b 28 3e f2 be 1b 3d 64 48 cd bc 14 09 82 be
       0.16434985 0.038023897 -0.025058933 -0.2539755
000320 76 8a 1f 3e c5 d0 49 3c a3 cd 2e 3e d5 cd 47 3b
       0.15580162 0.012317841 0.17070632 0.0030487676
000330 41 e4 7d 3e 91 c7 48 bd c7 3e 18 3e 5f a4 aa bd
       0.24794103 -0.049018446 0.14867698 -0.083321325
000340 86 9e 20 3e 08 65 3c 3e ab a3 e6 3d ff 12 2a 3e
       0.15685472 0.18397915 0.11261686 0.16608809
000350 0f c7 c5 bd 11 3f f5 3c 11 bf 23 be 3a 81 1f be
       -0.09657108 0.029937299 -0.15990855 -0.1557664
000360 a4 20 89 3b fe c2 e2 3d 50 66 0f be 2a 3e 74 be
       0.0041847993 0.11072348 -0.14003873 -0.23851839
000370 92 cc d7 bc f7 ac 69 3e a2 cc 67 3e bc 9b 0d bd
       -0.026342664 0.22819887 0.22636655 -0.034572348
000380 1b cc 76 bc 41 f7 c9 bc d9 c1 50 3e 9d 2d 2a 3e
       -0.015063311 -0.024654033 0.20386447 0.16618963
000390 cc b8 45 3e 3f ad 33 bc 25 95 fc 3d c8 b7 94 3d
       0.19308776 -0.010966598 0.123331346 0.07261616
0003a0 dd e4 6d 3e 29 f7 0f bc 71 36 75 3d 13 d8 42 3d
       0.23231836 -0.008786955 0.059866372 0.047569346
0003b0 44 84 12 bd 27 e8 3b 3e 18 be c0 3d 35 f8 a5 3d
       -0.03577067 0.18350278 0.094112575 0.08103982
0003c0 6e a0 41 bc bd e6 2a be ac 3d 2a 3e b7 a7 86 3e
       -0.011818035 -0.16689582 0.16625088 0.2629983
0003d0 27 ec ee bd a5 00 00 be e0 00 3b 3d 5b 2c 60 3e
       -0.11666136 -0.12500246 0.04565513 0.2189192
0003e0 96 ba 15 3e f2 f2 17 3c 34 a9 3f 3d 35 14 6d 3d
       0.14621958 0.009274231 0.046792224 0.0578806
0003f0 a5 cc 25 be 0d 66 27 be 45 b3 43 be bc 62 bd 3d
       -0.16191347 -0.16347523 -0.19111355 0.09247348

bias f4 [16]
000000 28 8a f1 3c c5 86 a1 3d 78 f3 af 3c 12 d9 0d 3a
       0.029484823 0.078870334 0.0214784 0.0005411069
000010 1b 1e 56 3e 9f cb 39 3d e6 4b a5 bd fd 92 01 be
       0.20909922 0.045360204 -0.08071117 -0.12653728
000020 28 0c 51 bd 8d e9 9c 3d 3a 47 43 3d 95 9c 41 bc
       -0.051036984 0.07661734 0.04767535 -0.011817117
000030 96 b6 02 3b 46 06 aa 3c 3b 81 0c b9 e1 db 2a 3c
       0.0019945255 0.020754945 -0.00013399583 0.0104284

weight f4 [32, 16, 5, 5]
000000 aa cf 91 3c d1 1a 48 3d 09 0a 3b 3b cf 96 e7 bb
       0.017799217 0.0488537 0.0028539917 -0.0070675383
000010 e7 8c 40 bb 03 1d 62 bc 01 c9 98 bc a2 94 3b 3d
       -0.002938086 -0.013800862 -0.018650534 0.045796044
000020 67 46 00 bd e4 e6 2c 3d c9 2b 19 3c ec 5d 8a 3c
       -0.03131714 0.042212382 0.009348818 0.016890489
000030 cc 01 da bc b9 f2 3e 3d d6 92 20 3b d0 c3 4f bc
       -0.026612185 0.046618197 0.0024501584 -0.012680963
000040 c1 ed 70 bd 49 28 00 3d b7 eb 05 3e 2c 6a c8 3d
       -0.05882049 0.03128842 0.130782 0.09785876
000050 9b ca e6 bc 83 0b 79 3d 4a 39 37 3d d1 da b4 3d
       -0.028172782 0.060801994 0.04473237 0.088307984
000060 5e 90 7d 3d 32 d5 41 bd 1e 5f ee bc ff 9a de 3d
       0.061905257 -0.04732246 -0.02909809 0.10869407
000070 0c 7c ec bc 36 13 07 3d ec 67 f6 bd ae c5 91 3b
       -0.028867744 0.032977305 -0.1203154 0.004448614
000080 b6 dd 8b 3d 2f 2e 45 3d 8b 5e ff 39 62 ad 3c bd
       0.068293974 0.048139747 0.0004870783 -0.04606379
000090 3e 4d 20 bc 9f a1 b3 3c e2 f2 b4 bc 97 78 6f bd
       -0.009784041 0.021927653 -0.022088472 -0.058464613
0000a0 96 84 90 bd dd 20 9a 3c 36 28 b3 bd a0 96 2f be
       -0.07056539 0.018814499 -0.08747904 -0.17147303
0000b0 09 8c 0c be 8e c9 a4 bc f3 92 68 bd 60 a9 29 be
       -0.13725294 -0.02011564 -0.056780767 -0.16568518
0000c0 85 48 93 be 50 18 2a be 02 7b f9 3c 67 31 6c 3d
       -0.28766266 -0.16610837 0.030454163 0.0576643
0000d0 1b cc a3 3d 15 63 16 3d 31 32 95 3c 01 35 2b bd
       0.079979144 0.036715586 0.01821241 -0.041798595
0000e0 c1 42 ee 3b d1 5c 36 3d 39 3b 87 3c 82 df ee b9
       0.0072711413 0.04452211 0.016507732 -0.00045561424
0000f0 50 c0 cf 3b 99 09 58 3c c3 fc 7c bd 9f f3 7f bc
       0.006340064 0.013185882 -0.06176449 -0.015622049
000100 c8 d5 31 3c e9 07 12 be b7 82 db bd 4d 4c 35 bd
       0.010854192 -0.1426083 -0.10718291 -0.04426222
000110 60 8c eb 3d f7 78 8b 3d b5 9d 0b be 47 33 27 3d
       0.11501384 0.068101816 -0.13634379 0.040820386
000120 f5 52 89 3d dc 56 8b 3d 29 60 5b 3d 90 45 02 3d
       0.06705276 0.068036765 0.053558502 0.03180462
000130 40 76 8e 3c 95 ad 31 bd 97 58 75 bd 8c 12 64 bd
       0.01739037 -0.04337843 -0.05989894 -0.05568175
000140 f7 b4 06 bd a2 3d 62 bd be d3 e0 3c 48 b1 7a 3d
       -0.032887425 -0.05523456 0.027444717 0.061204225
000150 83 66 01 3c 0a b3 76 bd df 3e e5 bc f0 b5 fb 3c
       0.007897976 -0.06022934 -0.02798408 0.030726403
000160 20 14 3a 3d 8e 20 99 3d a9 5e e8 bd db 25 3a 3c
       0.04542935 0.074769124 -0.1134618 0.0113615645
000170 c1 e1 59 bc 20 3f 74 3d 45 1f 0c 3d 9d fe 93 bc
       -0.013298453 0.059630513 0.03420951 -0.018065745
000180 3b a3 08 3d 8b 1f b7 3c c2 74 1d bc 04 e6 2a 3d
       0.033358794 0.022353908 -0.009610357 0.041723266
000190 e9 11 e6 bc 51 ed 99 bc 9e 02 ef bc 8c 77 a4 bd
       -0.028084712 -0.01878992 -0.029176053 -0.08030614
0001a0 c8 7e de 3c c9 de 6a bd d3 c2 05 bc f2 9c 86 bc
       0.027160063 -0.05734137 -0.0081641255 -0.01643226
0001b0 d9 b3 39 bd 74 dc 6a 3d 7d 17 48 bd b4 b3 af bd
       -0.04533753 0.057339147 -0.048850525 -0.085791975
0001c0 ae 81 5c bd f7 48 a5 39 0c a0 70 3d 39 be 05 bc
       -0.05383461 0.00031525615 0.058746383 -0.008163028
0001d0 20 21 71 bd e0 a1 b3 bc 6e 90 93 bc 97 f7 03 bd
       -0.05886948 -0.021927774 -0.018013205 -0.032218542
0001e0 c0 bf 6e bd f4 72 04 3d c7 0f bd bc 6e 9b 86 3d
       -0.058288336 0.03233619 -0.023078812 0.065726146
0001f0 7f 35 06 3e 8a c4 10 3c dc 09 a7 3d 2c e8 0d bc
       0.13106345 0.008835921 0.081561774 -0.008661311
000200 2d 39 1e bd 5f db 55 3d 8e e3 bc bc e3 b8 b9 bc
       -0.038628746 0.05221116 -0.023057725 -0.022671169
000210 e0 8c 61 3d 71 cc 8a bd 1b ac 5f bd 9c 5d 6f bd
       0.05506599 -0.06777275 -0.054607492 -0.058438882
000220 07 4f 29 3b e3 63 43 bd c2 e0 a0 3d 01 cf 27 bd
       0.0025834457 -0.04770268 0.07855369 -0.0409689
000230 12 bb 0c be d1 0d 27 bd 3b e4 31 bc 50 ad dd 3d
       -0.13743237 -0.04078466 -0.010857637 0.10824072
000240 96 50 00 bc 35 8a 05 bd 6c 7e 23 3b fc 57 27 bc
       -0.007831713 -0.032602508 0.002494718 -0.010213848
000250 e3 ba e3 bb e2 04 6f bc ad 4c 05 bd 4e 29 32 3d
       -0.006949769 -0.0145885665 -0.032543827 0.043496422
000260 1d 12 a4 3c 5f 50 51 bd 5f 8b f1 bc 8b ae 26 3c
       0.020028168 -0.05110204 -0.029485403 0.01017345
000270 99 1e 3a bd f1 26 3e 3d 4a aa 43 3d ba b7 34 bc
       -0.045439336 0.046423856 0.047769822 -0.011030132
000280 34 9a bf bc 4a 7f 27 3d dd a7 56 3d b4 f7 b4 3c
       -0.02338896 0.040892877 0.05240618 0.02209077
000290 24 f3 81 bd e4 89 bb bc 31 66 94 bb 9f fe f7 bc
       -0.063452035 -0.0228929 -0.0045287837 -0.03027278
0002a0 83 29 81 3c aa f0 93 bc 7d 58 ca bd 91 03 0a bd
       0.015766865 -0.018059094 -0.09880159 -0.033694807
0002b0 a3 06 96 3b 7f dd db 3c 11 04 e3 3c a7 ef 44 3d
       0.004578428 0.026839016 0.0277119 0.048080113
0002c0 cf d7 ea bc 3a b2 db 3b e5 e9 f2 bc af 0b bb 3c
       -0.028667359 0.006704596 -0.029652545 0.02283272
0002d0 c0 e5 a3 3c 44 8b b1 bb 1f 13 67 bd 30 5d ad 3c
       0.020007014 -0.005418213 -0.05641472 0.0211626
0002e0 c0 e5 91 3d df cf b5 bc 95 65 a9 bc 88 99 70 3d
       0.071238995 -0.022193847 -0.02067832 0.05874017
0002f0 62 18 c7 3b a8 76 2d bd 11 ea 05 bd 6f 21 95 3c
       0.0060759047 -0.042349488 -0.032693926 0.018204419
000300 eb 89 28 bc ca 56 b5 bd 34 ba bb bd be b3 d9 bc
       -0.010286788 -0.08854444 -0.09166375 -0.026574966
000310 4d 4b b8 bb 22 8f 0d be af 9c c7 bd 12 a7 57 bd
       -0.005624211 -0.13824132 -0.09746682 -0.052649565
000320 e1 be 28 3d 48 58 eb bc b1 ef ec 3c 0d 64 b4 bc
       0.04119766 -0.02872862 0.028922888 -0.022020364
000330 75 56 f7 bc d0 ea 3f 3c d4 98 22 bd b1 f3 b0 bc
       -0.030192593 0.0117136985 -0.03969653 -0.021600576
000340 18 81 14 3d 18 cd 13 bb f3 30 d5 3b 2c 0b a7 bc
       0.036255926 -0.0022552665 0.0065060793 -0.02039107
000350 4e 41 d4 3c a3 5c 21 3d c6 5b 1c 3d 64 d5 15 3d
       0.025910046 0.039394986 0.03817346 0.03658046
000360 21 19 2a bd d6 c7 62 3b 32 9b eb ba de d6 43 3d
       -0.04152787 0.0034603975 -0.0017975329 0.047812335
000370 38 14 99 bb 18 3e 96 bc 9b 1e ab 3c e1 26 1b 3d
       -0.0046715997 -0.018340155 0.020888617 0.037878875
000380 09 fc 54 3d fb e0 9c 3c e2 42 0e bd 49 40 8b bd
       0.051998172 0.019150248 -0.034731753 -0.06799371
000390 76 64 b6 3c 99 9a 42 bd bb e2 18 bd da 13 57 3d
       0.0222647 -0.047510717 -0.037325602 0.052509166
0003a0 52 8b fc 3b 95 91 73 bc d0 73 1e 3d bb e1 22 bd
       0.007707038 -0.014866252 0.038684666 -0.039766055
0003b0 7b 96 de 3c 74 2d 8a bb c9 3f c8 3c 5d 4f 96 bc
       0.027171364 -0.004216844 0.024444478 -0.01834839
0003c0 93 26 60 bc 53 cc 79 3b 98 e6 3b 3d b0 0f 15 3d
       -0.013681072 0.0038116171 0.04587421 0.036391914
0003d0 49 1b 98 bd b8 e0 0a 3d 0f fe 39 3c a8 18 d0 bb
       -0.07427079 0.033905715 0.011352076 -0.0063505955
0003e0 40 16 04 bb b1 a5 b0 3b 1c f0 0e bd 46 c2 6b 3d
       -0.0020154864 0.0053908457 -0.034896955 0.05755832
0003f0 59 18 b3 bc 8a 1e 31 3c f7 11 a0 bc d2 b7 de 3c
       -0.021862196 0.010810504 -0.019539816 0.027187262

bias f4 [32]
000000 64 17 7a bc a5 87 66 3c 54 79 10 bd 72 4e 2f bd
       -0.015264366 0.014070426 -0.035271958 -0.04279942
000010 e9 41 91 3b e6 dd c0 3c 9a 3c d4 3c 55 28 ec 3a
       0.004432906 0.02354331 0.025907803 0.0018017391
000020 c3 d1 1a bc 16 1b 4e 3c b1 4d 0f bd c9 3b 11 3d
       -0.009449425 0.0125797 -0.0349862 0.035457406
000030 55 ab 3d bb 5a 6a d0 bc 73 3e 57 3b d2 f0 4b bd
       -0.0028941233 -0.025441337 0.003284362 -0.04979021
000040 e3 56 85 bc b4 3a 16 bd 67 63 d0 bc e4 9b 92 bc
       -0.016276782 -0.036677077 -0.025438024 -0.0178966
000050 2b 58 09 bc 14 4b 30 bb 40 b4 4d 3d 0c 52 b4 ba
       -0.008382837 -0.0026900219 0.050220728 -0.0013757362
000060 c8 34 b8 3b d3 f3 14 bd 32 9c b7 3c a6 36 9f 3c
       0.0056215264 -0.03636534 0.022413347 0.019435238
000070 95 99 83 bb 71 ba 94 bc 36 57 a1 bb ce cc 13 3c
       -0.004016111 -0.018155308 -0.0049237264 0.009020997

weight f4 [10, 1568]
000000 07 be d6 3c c9 d0 9a ba ed a0 96 bc c8 97 9c 3c
       0.026213659 -0.001181149 -0.018387282 0.019115344
000010 fc ca cb 3c 26 7e da 3c d3 64 58 3b 26 3f 1c bc
       0.024877064 0.02667148 0.003301908 -0.00953654
000020 2f d6 2f bd 23 e7 09 bd 11 db 04 bc e7 9b 87 bc
       -0.04292887 -0.033667695 -0.00810887 -0.016553832
000030 3e 55 ef ba 06 ff 50 3c 9f 1f 2b bd aa 25 8c 3c
       -0.0018259657 0.012756115 -0.041778203 0.017107803
000040 39 56 c3 bc da 93 41 bd 40 b3 15 bc c7 69 3e 3c
       -0.023844825 -0.047260143 -0.009136975 0.011621899
000050 5f fb 08 3d 4a 79 53 bc 44 90 84 3b fb 40 1c 3d
       0.03344285 -0.012907336 0.004045518 0.038147908
000060 4c 0a dd bc 0b 6e a4 bc 44 a4 c3 3c e5 ba 4d 3c
       -0.026982449 -0.020072004 0.023882039 0.012556766
000070 b2 4c e1 bc 83 8e c7 3b b8 02 3f 3d 63 64 49 3c
       -0.027502391 0.006089987 0.046633452 0.012292
000080 11 0f 37 bd d2 da bf 3a ce 6e 85 3c d6 61 12 bd
       -0.044692103 0.0014637357 0.016288187 -0.035737835
000090 9a 78 2c bd 8d 72 fa 3c 87 24 0a 3d 42 bf 87 3b
       -0.042107202 0.0305722 0.03372624 0.0041426728
0000a0 3c 7d e2 bb a1 47 a9 bc 28 2d 54 3d 7d 9f f7 ba
       -0.0069119018 -0.020664038 0.051800877 -0.0018892136
0000b0 db 12 b7 bb 81 1a f2 3c 2a 41 8b bc a7 0c cd bd
       -0.0055869645 0.029553654 -0.016998846 -0.10012179
0000c0 f1 fb 0e bc e4 9f b5 3c fb e4 0f bd 55 1d 37 bd
       -0.00872706 0.022170968 -0.035130482 -0.044705708
0000d0 9b 23 f6 bc 02 70 e2 bb fa 33 5c bc a4 21 28 bd
       -0.030046275 -0.006910325 -0.013440127 -0.041047707
0000e0 33 6e 8c bd 5a 14 90 bd e4 33 89 bc e4 1b 04 bd
       -0.06856956 -0.07035132 -0.016748376 -0.03225316
0000f0 ab c9 18 3d 06 9d fe 3b 70 d2 1c 3d a0 eb d1 bc
       0.0373017 0.0077701835 0.038286626 -0.02562505
000100 21 af fc bc 93 67 13 3d 16 8d 59 3b 21 77 ae 3c
       -0.030845227 0.035987448 0.0033195666 0.02129704
000110 5e 24 72 3d cf 2d 24 3d 3f 4f ba bd 83 4a 37 bc
       0.059116714 0.04008275 -0.09097146 -0.011187199
000120 33 e1 32 3c 07 b2 fc bc fa c8 35 bd 93 48 10 3d
       0.0109179495 -0.030846609 -0.04438112 0.035225462
000130 d7 0d 0e 3c 5b a1 14 bd bc ed 90 3c ee b2 15 3c
       0.008670292 -0.036286693 0.017691486 0.009136898
000140 4d 62 e9 3b 56 9d 5c bd 64 fc a2 bc c6 06 64 bb
       0.007122314 -0.053860985 -0.01989574 -0.0034794076
000150 f2 90 6c 3b 52 84 b3 b8 01 a6 16 3d 4e 25 31 bb
       0.0036097136 -8.560032e-05 0.036779407 -0.0027030292
000160 91 4b ef bc 18 80 e9 bc 16 c0 80 bb f6 89 3a ba
       -0.029210838 -0.028503463 -0.0039291484 -0.00071158947
000170 9c 6d 04 3d 70 ae da 3c a8 e0 de 3b 90 0e fc 3b
       0.032331094 0.026694506 0.0068016835 0.0076921657
000180 3d 39 11 bd d0 d4 83 3b 2f 0b 62 bd 55 49 3b bd
       -0.035454977 0.004023172 -0.055186447 -0.04572423
000190 99 50 15 bd 5b bb 4a bc 07 d7 01 bd 0c 54 47 bd
       -0.036453817 -0.012373771 -0.031699207 -0.048664138
0001a0 10 d2 31 3d a2 cc c0 bc fd e2 d9 bc f4 e2 d7 bb
       0.04341322 -0.023535077 -0.026597494 -0.006588334
0001b0 32 ed 95 3c 3d e9 c9 3c 0c 16 81 bb fc a9 bb 3c
       0.01830158 0.02464735 -0.003939396 0.022908203
0001c0 0e 04 49 bd 0a 0b 8b bc 32 36 e6 bc 11 70 55 3d
       -0.049076132 -0.016973037 -0.028102014 0.052108828
0001d0 75 43 d1 3c 6b cc 0b bb 54 f4 27 3d 28 8b 25 bd
       0.025544861 -0.002133156 0.041004494 -0.040415913
0001e0 67 e1 16 bd 88 0c 03 be 78 58 89 bd 7c c6 03 ba
       -0.036836054 -0.12797749 -0.06706327 -0.000502683
0001f0 6e 61 2d bc a3 f3 b8 3c e4 fa b3 bb fb 00 14 bc
       -0.010582311 0.022577113 -0.005492555 -0.009033437
000200 2c 55 62 bc dc 25 05 ba c7 fc 0b bd 6a 8e 51 bd
       -0.013814252 -0.0005079189 -0.034176614 -0.051161207
000210 7f 32 67 bc 29 4c f2 bb 0b 70 30 3c 34 ce 38 bb
       -0.01411116 -0.007394333 0.010768901 -0.0028199079
000220 ff e8 36 bb 1b c3 9d 3c 9e c3 59 bd a8 06 7e bd
       -0.0027909873 0.019258073 -0.05316507 -0.062018067
000230 5a 81 a0 bd 32 5a c7 bc 0f 1d e1 3c b2 84 4b 3d
       -0.07837172 -0.024335 0.027479677 0.049687095
000240 01 7e 06 bc 6c 13 8d bd a2 84 2e bd 93 02 33 3c
       -0.008208753 -0.0688847 -0.042606957 0.010925907
000250 ce 06 18 bd d8 d3 f6 bc e5 7c 57 bc 2b 47 bd 3b
       -0.037115864 -0.030130312 -0.013152336 0.005776306
000260 da 01 0a bd 4a 1c 21 bd 4d 10 21 3c 2d 6f 41 bc
       -0.033693172 -0.03933362 0.009830547 -0.0118062915
000270 e7 9e 33 bc d6 3e 6c bc 1c 93 31 3c 94 71 33 bd
       -0.010963178 -0.014419278 0.010838296 -0.04380949
000280 48 66 6a bd bc f7 b2 bb ab 80 b6 3b 6a b0 25 3d
       -0.05722645 -0.005461661 0.0055695376 0.040451445
000290 d6 4c 8b 3d 7a fc 9c 3c 99 cd 4e bd 95 1f 30 bd
       0.06801765 0.019163359 -0.050489042 -0.04299887
0002a0 50 94 3a bd 67 36 37 bd ae 8f 26 bd 9f 7c c4 bd
       -0.045551598 -0.044729616 -0.040664367 -0.09594082
0002b0 d1 95 96 bd d0 48 07 bd 59 55 b3 3b cb c7 10 be
       -0.07352794 -0.033028424 0.0054728207 -0.14138715
0002c0 06 59 0e be d7 ec 8e 3c 25 a4 9a 3c 4d 40 0b 3d
       -0.13901147 0.017446918 0.018877098 0.03399687
0002d0 30 1c 4d bd 95 1b 15 3c 25 e1 10 be 29 5e da bd
       -0.05007571 0.009100814 -0.14148386 -0.10662491
0002e0 57 bc 89 bc 75 0e 3d 3d 38 45 1b 3b 05 e9 5f 3c
       -0.01681344 0.046156365 0.002369238 0.013666396
0002f0 28 a7 da bc ac 1c 13 be d1 02 92 3d ac 4e 2e bd
       -0.026691034 -0.14366406 0.071294434 -0.042555496
000300 2a bb ac bd 92 cb fc 3b 24 4c 0f bd 15 83 f8 bc
       -0.08434136 0.007714697 -0.034984723 -0.030335942
000310 e7 0b 29 bd 5b ea a9 bc 29 41 85 bc 9a f4 c4 bc
       -0.041271117 -0.020741632 -0.016266422 -0.024042416
000320 e2 62 36 bc 2b ad d0 3c 0d 3b 0d bd 8f a4 ac bc
       -0.011131974 0.025473198 -0.034480143 -0.021074561
000330 d6 fd 64 bd 7c d9 cf 3b e6 06 e3 3b 7c 8b 0e 3c
       -0.05590614 0.006343065 0.0069283126 0.008700248
000340 0b 49 93 3c 5b 40 e2 38 b7 df 40 bd fe 59 8e bc
       0.017979166 0.00010788507 -0.04708835 -0.017376896
000350 12 62 8e 3c b6 3c 08 3b 25 af ae 3b 0f 20 56 3c
       0.017380748 0.002078814 0.0053309374 0.013069167
000360 f4 5b 0f 3d 09 f6 e1 bc 9d 11 23 3d 22 f9 6b 3c
       0.034999803 -0.027583139 0.03981172 0.01440266
000370 14 15 91 bd 34 2e 34 bd 9e 77 14 bb 93 cb ab 3c
       -0.070840985 -0.043989375 -0.0022654305 0.020971095
000380 d6 d4 16 3d de 38 0b 3c 4c 7a 07 3d 2f 05 62 bd
       0.03682407 0.008497445 0.033075616 -0.055180725
000390 50 6d bf bc 4f 41 13 bd ba a6 a4 bc 6c 5d d1 3b
       -0.023367554 -0.035950955 -0.020099033 0.0063893106
0003a0 1e 89 91 bc cd 62 48 3d 1c f5 d3 3b 04 72 f9 3c
       -0.017765578 0.04892235 0.0064684283 0.030449875
0003b0 4b a6 c5 bc 08 6c 05 bd 81 f4 b3 bc ff 68 af bc
       -0.024127146 -0.03257373 -0.021967174 -0.02141237
0003c0 ae 78 fa bc 4e 60 25 3b 6b 2c 9c 3a 99 c3 e0 bd
       -0.030575123 0.0025234404 0.0011915093 -0.10974807
0003d0 aa c0 ee bd 6b 86 f3 bc fc ec 3c bd 4d 06 68 bc
       -0.116578415 -0.029727181 -0.046124443 -0.0141616585
0003e0 6a e9 74 bd 03 2f 4c bd a2 b6 b9 bd a1 55 9d bc
       -0.059792913 -0.04984952 -0.090680376 -0.01920587
0003f0 f6 ba 22 3c f5 91 15 3d 44 fa 4e bc ed 6c 61 3c
       0.00993227 0.03651615 -0.01263291 0.01375888

bias f4 [10]
000000 3e 44 64 bc 78 16 43 bb 07 aa bd 3c 06 a7 cb bc
       -0.013932286 -0.002976803 0.023152364 -0.024859916
000010 88 1a 50 bc 5a 79 e2 3c 82 67 da bc cc 86 a2 3c
       -0.012701638 0.027645756 -0.026660684 0.019839667
000020 75 21 bc ba aa c7 3c 3c
       -0.0014353233 0.011522213
