cnn.pt (torch, 120736 bytes, 6 tensors)

weight f4 [16, 1, 5, 5]
0.0019872175 -0.51347315 -0.5182954 -0.4949141 -0.24703822 -0.039453417 -0.1291279 -0.46720323
-0.09680203 -0.10389425 0.21639644 0.3491269 0.21719348 0.040597327 0.115079105 0.15934809
0.36973315 0.30746594 0.1262651 0.08146446 -0.092465624 0.016520003 0.33200532 0.21398081
0.1384038 0.051346943 0.098215766 0.09765868 0.17260838 0.04802439 -0.29545128 0.09450545
-0.070416965 0.05439154 -0.018944705 -0.2985373 0.31785363 -0.023164049 0.039062783 -0.030421168
0.24703941 0.29838613 0.08704416 0.019113833 0.24265733 -0.0146188475 -0.378266 -0.4215177
-0.25266057 0.117949836 0.046507835 0.0545335 0.28561983 0.043950323 -0.031143513 0.21897332
0.293076 0.27413142 -0.07412887 0.060752347 0.19550607 0.29258654 0.06916185 -0.3634835
-0.30501795 -0.14030525 0.28130433 -0.15380199 -0.26779073 -0.34877083 0.045332767 -0.12676997
0.054143485 0.13157338 -0.2301599 -0.21362165 0.09133943 -0.18538369 -0.39329982 -0.26145878
0.0066261105 -0.039579082 0.20164938 0.31601697 0.25785083 0.3371432 0.43709585 0.38803518
0.059800528 0.17286602 -0.25628617 -0.13570188 0.087009214 0.095691055 0.0179212 -0.3334086
-0.45376652 -0.19098793 -0.24646036 0.1330058 -0.15081681 -0.13643847 0.22650231 0.369677
0.13768426 0.3104665 0.26380405 0.2895215 0.22924532 0.054897755 -0.040160403 0.2367125
-0.16671467 -0.111058496 0.26683295 -0.14843686 -0.396492 -0.3066238 -0.021879487 -0.060863532
0.06881993 -0.18376257 -0.23704283 -0.2552783 -0.022776222 -0.033468317 0.063546784 -0.25273603
-0.12534733 -0.22940122 0.068245724 -0.3548146 -0.31161106 -0.4290781 -0.24058877 0.23360063
-0.21271966 -0.38432392 -0.22737598 0.28797334 0.37566772 0.39816412 0.13481534 0.23902304
0.24572524 0.3343739 0.33211023 0.21611848 0.3382448 0.12664609 0.18114601 0.19127655
0.40235463 0.3115639 0.16079591 0.09108651 0.22869311 0.26761132 0.37526348 -0.1407345
-0.26264656 -0.38662568 -0.25013852 0.32398668 -0.009329384 -0.47873005 -0.4436796 -0.6241383
0.14025658 0.36613584 -0.39907455 -0.35488513 -0.05676212 0.3683977 0.37219185 0.30190682
0.022425225 0.11037011 0.30099615 0.15229426 0.13777144 0.23481452 0.103886575 0.26174465
0.3078903 -0.10483509 0.22264214 0.111515634 0.0025049117 0.24692331 -0.5682708 -0.5713327
-0.2881239 -0.51059735 -0.46750763 -0.22571577 -0.52221113 -0.49152264 -0.21044141 -0.042390887
-0.280821 0.32817692 0.24339853 -0.08429985 0.31273904 0.31756693 0.55668426 0.036027696
0.10250734 0.12906477 0.235486 0.35059163 0.013039352 -0.23035322 -0.097990155 0.07411612
-0.094822034 -0.36025554 -0.43189782 -0.27981424 0.13232034 0.14903224 -0.26344246 -0.051116716
-0.06906201 -0.31312156 -0.32934347 -0.24771251 0.1723841 0.16048934 -0.2880343 -0.14744645
-0.090448946 0.1824159 0.13980927 -0.36554867 -0.23805314 0.06877287 0.17716086 0.2518137
-0.3217452 -0.031560972 0.18731427 0.38451293 0.00738438 0.034340132 -0.04033216 0.30348694
0.18707788 0.023457477 0.0580477 0.124405295 0.18471557 -0.20581552 0.16542834 0.09219208
00000000: fa3b 023b fa72 03bf 02af 04bf 6265 fdbe
00000010: 96f7 7cbe e899 21bd 1b3a 04be 4335 efbe
00000020: 2540 c6bd 82c6 d4bd 0797 5d3e c3c0 b23e
00000030: f867 5e3e 6249 263d 98ae eb3d 252c 233e
00000040: aa4d bd3e 2d6c 9d3e a34b 013e d7d6 a63d
00000050: 9e5e bdbd f554 873c 9afc a93e c91d 5b3e
00000060: bab9 0d3e 2c51 523d 5925 c93d 4601 c83d
00000070: 40c0 303e 39b5 443d 6445 97be 138c c13d
00000080: c536 90bd aac9 5e3d ed31 9bbc e2d9 98be
00000090: b6bd a23e 88c2 bdbc 4c00 203d d035 f9bc
000000a0: e6f7 7c3e 11c6 983e 3544 b23d 9d94 9c3c
000000b0: 2a7b 783e e483 6fbc 15ac c1be 2bd1 d7be
000000c0: ba5c 81be af8f f13d 007f 3e3d 855e 5f3d
000000d0: c33c 923e 4105 343d ae20 ffbc 8b3a 603e
000000e0: 0f0e 963e f45a 8c3e e1d0 97bd 74d7 783d
000000f0: be32 483e e7cd 953e baa4 8d3d 821a babe
00000100: 502b 9cbe 2eac 0fbe 1f07 903e 457e 1dbe
00000110: de1b 89be 1792 b2be daae 393d fdcf 01be
00000120: 8fc5 5d3d 2cbb 063e 09af 6bbe a2bf 5abe
00000130: 2b10 bb3d 39d5 3dbe 985e c9be eddd 85be
00000140: d81f d93b ad1d 22bd 2d7d 4e3e facc a13e
00000150: 0605 843e 099e ac3e 07cb df3e 8cac c63e
00000160: 66f1 743d ca03 313e f137 83be 6ff5 0abe
00000170: e331 b23d acf9 c33d 7bcf 923c 88b4 aabe
00000180: 1654 e8be 5792 43be 1b60 7cbe ac32 083e
00000190: b96f 1abe 87b6 0bbe 39f0 673e 4e46 bd3e
000001a0: 1afd 0c3e 77f5 9e3e 5311 873e 293c 943e
000001b0: 49bf 6a3e 78dc 603d 3c7f 24bd c364 723e
000001c0: 40b7 2abe a372 e3bd 549e 883e d5ff 17be
000001d0: 0001 cbbe cbfd 9cbe 9c3c b3bc 0a4c 79bd
000001e0: 77f1 8c3d 412c 3cbe 5bbb 72be d6b3 82be
000001f0: 3395 babc 1316 09bd d124 823d 9e66 81be
00000200: 0d5b 00be 27e8 6abe 6ac4 8b3d 42aa b5be
00000210: 7c8b 9fbe 20b0 dbbe e75c 76be 0135 6f3e
00000220: 2fd3 59be 1bc6 c4be 40d5 68be 3e71 933e
00000230: 8557 c03e 2bdc cb3e 080d 0a3e 75c2 743e
00000240: 669f 7b3e 0e33 ab3e 5a0a aa3e 2a4e 5d3e
00000250: 6c2e ad3e 83af 013e 577e 393e 00de 433e
00000260: 6d01 ce3e 4e85 9f3e afa7 243e 908b ba3d
00000270: 872e 6a3e 5a04 893e 8922 c03e b41c 10be
00000280: 9c79 86be cdf3 c5be 2812 80be 95e1 a53e
00000290: 46da 18bc 1b1c f5be f929 e3be 87c7 1fbf
000002a0: 6c9f 0f3e 2876 bb3e 8053 ccbe 81b3 b5be
000002b0: 667f 68bd a09e bc3e ee8f be3e 8893 9a3e
000002c0: 1bb5 b73c b909 e23d 2b1c 9a3e 07f3 1b3e
000002d0: f513 0d3e 3873 703e 7cc2 d43d 6503 863e
000002e0: cca3 9d3e c8b3 d6bd 4dfc 633e 4f62 e43d
000002f0: 7229 243b 77d9 7c3e 327a 11bf dc42 12bf
00000300: fa84 93be 82b6 02bf 295d efbe 0922 67be
00000310: a1af 05bf dba8 fbbe f47d 57be 11a2 2dbd
00000320: c5c7 8fbe ce06 a83e 773d 793e 66a5 acbd
00000330: 551f a03e 2298 a23e dc82 0e3f c791 133d
00000340: 5eef d13d 8e29 043e 3e23 713e bf80 b33e
00000350: 02a3 553c b7e1 6bbe 10af c8bd 31ca 973d
00000360: 0e32 c2bd 6a73 b8be b621 ddbe d043 8fbe
00000370: fc7e 073e e89b 183e eee1 86be c35f 51bd
00000380: 6270 8dbd 7851 a0be b59f a8be 59a8 7dbe
00000390: 7585 303e 5157 243e 3b79 93be 34fc 16be
000003a0: 4c3d b9bd 3ccb 3a3e 292a 0f3e 3229 bbbe
000003b0: 34c4 73be cad8 8c3d a869 353e baed 803e
000003c0: c9bb a4be 1446 01bd 50cf 3f3e e1de c43e
000003d0: abf8 f13b 3da8 0c3d 5633 25bd a462 9b3e
000003e0: 5891 3f3e e529 c03c 6dc3 6d3d 34c8 fe3d
000003f0: 1426 3d3e 4ec1 52be 0c66 293e 34cf bc3d

bias f4 [16]
0.09148077 -0.0048541906 0.06802362 -0.024268469 0.024210976 0.014498559 0.065911874 0.18799369
0.017218238 0.12565525 -0.02919145 0.03496955 0.08062585 0.06482731 0.0103647085 -0.00024018338
00000000: 455a bb3d e70f 9fbb f84f 8b3d abce c6bc
00000010: 1956 c63c 5d8b 6d3c cefc 863d 6b81 403e
00000020: 430d 8d3c c5ab 003e e822 efbc 3b3c 0f3d
00000030: 2a1f a53d 2ec4 843d bdd0 293c bcd9 7bb9

weight f4 [32, 16, 5, 5]
0.1698255 -0.01934772 -0.2219837 -0.21232407 -0.05622478 -0.108612925 -0.12690224 -0.27700946
-0.17710085 -0.085151844 0.050962053 -0.13565052 -0.24679944 -0.1990976 0.04756745 0.014510504
-0.09150846 -0.269065 -0.025093384 0.06777401 -0.05187667 -0.1839071 -0.16223113 0.0335644
0.0442997 -0.0946933 -0.03472936 -0.051011506 -0.0355883 0.07885933 0.004510121 -3.3920285e-05
0.003832804 0.05562937 -0.04390298 -0.13958131 -0.014532201 0.03644286 -0.07410207 -0.17620996
-0.05951897 0.07257934 -0.009362573 -0.030070517 -0.08903397 0.06667544 0.12324802 0.021865107
-0.042675182 -0.0914095 -0.026317835 -0.14301747 -0.04422688 0.107865274 0.090264305 -0.01111795
-0.22312962 -0.013060688 0.18465716 0.102373205 -0.21372585 -0.16106924 0.13653448 0.14928253
0.06993969 -0.16539754 0.05829552 0.09527471 0.04661427 0.042468168 0.0152674895 0.10204161
0.0655142 0.013248537 -0.07853388 0.11433508 0.042669553 0.08228024 0.04078546 0.03786103
-0.005524711 -0.09589173 -0.047062103 -0.28591838 -0.11644364 -0.027884724 -0.0952649 -0.14803094
-0.0011818709 0.06773696 -0.11343761 -0.1205272 -0.02646725 0.048560854 0.09425995 0.029581068
0.030082995 -0.02346433 -0.034457725 -0.02940128 0.014241232 0.07825636 -0.025161926 -0.0045574945
0.08288051 0.050101034 0.011725794 -0.0686322 0.05852147 0.16393541 -0.1722297 -0.09516139
0.07288044 -0.0064676525 -0.06904192 -0.14863424 -0.000405078 0.08941923 -0.028030066 -0.06349097
0.040333804 0.047697913 0.047821242 0.0009664769 -0.10979703 0.04596008 -0.13659586 -0.09980157
-0.10384876 -0.016736558 -0.0072202315 -0.06805376 -0.13269094 -0.105646975 0.045567106 0.097522885
-0.03585277 -0.14419448 -0.03573379 0.06399499 0.063810945 -0.066447616 -0.14404932 0.05443285
0.09007541 -0.072160214 -0.027033081 -0.098223336 0.020725228 0.035867624 -0.136688 0.085188955
0.14875692 -0.12841557 -0.09614518 0.037838835 0.17188787 0.018782286 -0.17072737 -0.049704656
0.06536847 0.013881716 -0.023440043 -0.06158346 -0.12067745 0.018697225 -0.065982416 0.10653171
0.023720346 -0.029014887 -0.1382703 -0.056911394 0.043319654 -0.08160904 0.025741436 0.08623525
0.102372944 -0.07285336 -0.1957092 -0.025026923 0.08856917 -0.0122471405 -0.20232016 -0.1757
0.017711446 -0.100644074 -0.14128122 -0.09963715 -0.10033287 -0.11817722 -0.13430105 -0.17136759
-0.02393536 0.018068243 0.019450307 -0.029013105 0.031714395 0.12113424 -0.01488256 -0.09653945
0.023241801 -0.18263425 -0.0449917 0.15214962 0.14820105 0.09177182 -0.2711313 0.024718724
0.16226263 0.0970058 -0.15584402 -0.26798284 0.14798395 0.1470554 0.03910296 -0.17942849
0.093079396 0.11834268 0.075942546 -0.081537195 -0.033893287 0.23742099 -0.006848504 0.05837633
-0.12858908 -0.12211204 0.0029855694 0.0887298 0.020557305 -0.09046847 -0.16007984 0.13192399
0.14258353 0.07867205 -0.16854115 0.041724477 0.107953034 0.14573759 -0.1321645 -0.2499559
0.20250814 0.12675889 0.0147911515 -0.04868677 -0.16310064 0.19019763 -0.015242829 -0.05390988
-0.14214271 -0.074984014 -0.21851741 0.060165767 0.14069441 0.10018135 -0.19152261 -0.09720688
00000000: bce6 2d3e 1c7f 9ebc b24f 63be 7b6b 59be
00000010: f44b 66bd 7470 debd a9f2 01be 2fd4 8dbe
00000020: ed59 35be 1764 aebd 96bd 503d f8e7 0abe
00000030: feb8 7cbe 3ee0 4bbe 16d6 423d 77bd 6d3c
00000040: ca68 bbbd e3c2 89be a490 cdbc 1acd 8a3d
00000050: a27c 54bd 2552 3cbe eb1f 26be d37a 093d
00000060: 9a73 353d 90ee c1bd 6040 0ebd 71f1 50bd
00000070: 0ac5 11bd 0081 a13d a3c9 933b a145 0eb8
00000080: c82f 7b3b 9fdb 633d 9cd3 33bd 67ee 0ebe
00000090: 7818 6ebc 1c45 153d d3c2 97bd 6270 34be
000000a0: 2aca 73bd 7aa4 943d 7a65 19bc 7256 f6bc
000000b0: 7157 b6bd 228d 883d 7569 fc3d 741e b33c
000000c0: 2ccc 2ebd e734 bbbd 8098 d7bc 2c73 12be
000000d0: 3f27 35bd 78e8 dc3d 7edc b83d 1028 36bc
000000e0: 177c 64be 7ffc 55bc c416 3d3e 0ba9 d13d
000000f0: f3da 5abe 56ef 24be b2cf 0b3e 85dd 183e
00000100: 8a3c 8f3d f95d 29be 48c7 6e3d 631f c33d
00000110: 9bee 3e3d 1af3 2d3d 7e24 7a3c 31fb d03d
00000120: 4f2c 863d 6410 593c 5fd6 a0bd 8328 ea3d
00000130: 45c6 2e3d 8b82 a83d a80e 273d 2b14 1b3d
00000140: a308 b5bb e262 c4bd 31c4 40bd e563 92be
00000150: 017a eebd 816e e4bc 3e1a c3bd 6c95 17be
00000160: 02e9 9aba adb9 8a3d fa51 e8bd f7d6 f6bd
00000170: d9d1 d8bc bfe7 463d 5c0b c13d ff53 f23c
00000180: 9d70 f63c 4438 c0bc 8b23 0dbd f4da f0bc
00000190: 0e54 693c df44 a03d 6220 cebc 0957 95bb
000001a0: 42bd a93d be36 4d3d 8b1d 403c 0a8f 8cbd
000001b0: 35b4 6f3d afde 273e fc5c 30be fae3 c2bd
000001c0: 5742 953d 9aee d3bb da65 8dbd 9333 18be
000001d0: a660 d4b9 6e21 b73d 4f9f e5bc 8e07 82bd
000001e0: 0f35 253d e35e 433d 35e0 433d 2b5b 7d3a
000001f0: 44dd e0bd a340 3c3d c9df 0bbe c464 ccbd
00000200: a9ae d4bd 1b1b 89bc b197 ecbb c55f 8bbd
00000210: 22e0 07be 715d d8bd 93a4 3a3d 14ba c73d
00000220: 5bda 12bd b8a7 13be 985d 12bd ce0f 833d
00000230: 50af 823d b015 88bd aa81 13be fbf4 5e3d
00000240: 7579 b83d bcc8 93bd 7b74 ddbc 5129 c9bd
00000250: f4c7 a93c eee9 123d f0f7 0bbe 8c77 ae3d
00000260: bc53 183e 5f7f 03be c4e7 c4bd e5fc 1a3d
00000270: 6003 303e 4fdd 993c 28d3 2ebe 1c97 4bbd
00000280: e8df 853d 2370 633c 5505 c0bc f03e 7cbd
00000290: bd25 f7bd ec2a 993c ca21 87bd 4c2d da3d
000002a0: 2c51 c23c a1b0 edbc bb96 0dbe ec1b 69bd
000002b0: f36f 313d a422 a7bd b4df d23c 1b9c b03d
000002c0: e8a8 d13d 2434 95bd fe67 48be 4305 cdbc
000002d0: c163 b53d 3ba8 48bc 042d 4fbe b3ea 33be
000002e0: 9817 913c 7b1e cebd 06ac 10be 900e ccbd
000002f0: 527b cdbd e606 f2bd 3786 09be fc7a 2fbe
00000300: 1714 c4bc da03 943c 4056 9f3c e4ac edbc
00000310: f4e6 013d 3a15 f83d fbd5 73bc 7ab6 c5bd
00000320: 9765 be3c 7904 3bbe 3849 38bd 1ccd 1b3e
00000330: 04c2 173e ddf2 bb3d b9d1 8abe ec7e ca3c
00000340: 2d28 263e faaa c63d 9395 1fbe 0c35 89be
00000350: 1b89 173e b195 163e 6d2a 203d 1abc 37be
00000360: 69a0 be3d a65d f23d c487 9b3d f9fc a6bd
00000370: b0d3 0abd 7d1e 733e 6a69 e0bb 051c 6f3d
00000380: dbac 03be e115 fabd 8ba9 433b f8b7 b53d
00000390: cb67 a83c 8847 b9bd f8eb 23be 1517 073e
000003a0: 6b01 123e d01e a13d 0d96 2cbe 49e7 2a3d
000003b0: 7b16 dd3d 3c3c 153e 2156 07be 70f4 7fbe
000003c0: 4b5e 4f3e 15cd 013e 9656 723c c76b 47bd
000003d0: db03 27be 2bc3 423e 0fbd 79bc 9bd0 5cbd
000003e0: dc8d 11be 3891 99bd 07c3 5fbe 6170 763d
000003f0: 3212 103e e12b cd3d 811e 44be 6714 c7bd

bias f4 [32]
0.017947227 0.048962176 -0.0698614 0.020426098 0.036823973 -0.047588825 0.02042243 0.0099681765
-0.08629201 -0.07761064 -0.075092666 -0.009315613 -0.037545457 -0.060928382 -0.03738 -0.060101837
0.032344755 -0.03975931 -0.004332477 -0.06261367 -0.12506269 -0.079388924 -0.023132918 -0.04105551
-0.11258745 -0.013899961 -0.02224431 -0.062034503 -0.028725155 -0.02132309 0.02949098 -0.02205038
00000000: 1006 933c 908c 483d 7e13 8fbd a254 a73c
00000010: bcd4 163d 80ec 42bd f14c a73c 9051 233c
00000020: deb9 b0bd 54f2 9ebd 2fca 99bd 83a0 18bc
00000030: 44c9 19bd 0a90 79bd c51b 19bd 582d 76bd
00000040: ef7b 043d a9da 22bd 74f7 8dbb 993b 80bd
00000050: 6f10 00be a996 a2bd 3f81 bdbc d329 28bd
00000060: 4094 e6bd a9bc 63bc b339 b6bc e417 7ebd
00000070: 0451 ebbc c3ad aebc 1197 f13c 00a3 b4bc

weight f4 [10, 1568]
-0.007582019 -0.04279507 0.0024706998 -0.03185426 -0.051372297 0.02368217 0.02610931 -0.041916803
-0.01781486 -0.025023835 0.009097843 -0.008994954 -0.006551833 -0.042345084 -0.055515703 0.13106558
0.00026119762 -0.049126428 -0.06918596 0.018411301 0.018785723 0.009832646 0.08026294 0.07498054
-0.0513688 0.008505702 0.06655613 -0.052959215 0.11740819 0.06544456 0.06356005 -0.10278219
0.034851477 0.041855607 -0.047317393 0.13412057 0.053919803 -0.038605895 -0.16437627 -0.038675148
-0.11428872 -0.09783924 0.033044524 0.08502963 -0.113663204 -0.26160422 -0.3897767 -0.06210611
0.0015693066 -0.025272576 0.054995526 -0.02776567 0.026903357 -0.003339785 0.025259394 -0.015739212
-0.042808928 0.052744053 -0.034368865 -0.043590266 0.08886212 -0.0135297775 0.035277102 -0.0051693195
0.10269436 -0.0022680985 -0.027990138 0.03899845 0.03327845 0.03628042 -0.063425794 0.020644989
-0.12445746 -0.12118244 -0.074460424 0.054840095 0.086016744 -0.10363682 -0.025736373 0.011032113
0.019121947 -0.012881953 0.096462145 0.04523539 -0.17349543 0.064042084 0.07293672 0.10871296
-0.06084174 0.01524797 -0.043481257 -0.24241094 0.02692343 0.13633168 -0.2892011 -0.3809748
-0.21910794 -0.14103337 -0.007864207 0.012298235 0.025598945 -0.033948403 0.008126397 0.010349489
0.113564886 -0.005502441 -0.048860826 -0.09739562 -0.013957689 0.014193728 -0.09698236 -0.0134107275
-0.0545012 0.0154233705 0.047131557 -0.027348556 -0.09009926 -0.047590185 -0.04237403 0.043054666
0.0030063798 -0.11599466 -0.09941888 -0.058004748 -0.1757717 -0.06840246 -0.011160739 0.005702175
-0.038911797 -0.079123154 -0.100643724 0.054247305 0.041388962 0.006797883 0.05568738 0.023757232
0.02739864 0.0069655464 0.009226152 -0.0298903 -0.056886006 0.023314023 0.006428818 0.02133724
-0.012121957 0.008713377 -0.03223943 -0.024842907 0.029192757 0.036146995 0.021253102 0.007841823
0.024224797 0.10190915 0.06144943 0.004010283 0.102043025 0.108637355 0.095099755 -0.07798763
-0.020868102 0.07556409 0.025245126 0.0670938 -0.059079245 0.035406347 0.012082337 -0.021276519
0.014473683 -0.06192149 -0.14936806 -0.039926104 -0.12538531 -0.17064092 -0.07261671 -0.098688476
-0.14844662 -0.22574735 -0.19578779 -0.120986156 0.097724006 0.07584842 -0.0035937726 -0.028607864
0.017104577 0.15383224 0.13557644 0.095677055 0.05945343 0.005756246 0.029955314 0.022776162
0.057048593 0.036840133 0.0041931295 0.011924467 0.09229066 0.038969498 -0.022332583 -0.19417782
0.050223336 -0.01364102 0.036467947 0.010917756 -0.13957562 -0.048274215 0.010643858 0.011065333
-0.09767786 0.0010011803 0.035933085 -0.015388778 0.10819251 0.017706176 -0.0011317732 -0.10597999
-0.0049689873 -0.07038693 -0.084490485 -0.018000543 -0.14642088 -0.21833761 -0.079384506 -0.078033306
0.07907838 0.074156046 -0.019306859 -0.05517173 -0.033441853 0.03946309 0.017420657 -0.006662083
0.035230014 -0.017227829 0.051193148 0.052818622 0.072357796 -0.029473783 0.03224446 0.007463824
-0.06721667 0.018472055 0.10953643 0.027783126 -0.11501741 -0.02890975 -0.083111465 -0.14917926
-0.038732234 -0.04558044 -0.052756105 -0.0155334985 0.0858769 0.06966858 0.034615595 -0.066512495
00000000: 9672 f8bb e249 2fbd 77eb 213b 9d79 02bd
00000010: c26b 52bd 1c01 c23c 31e3 d53c f4b0 2bbd
00000020: 78f0 91bc c9fe ccbc 1f0f 153c 925f 13bc
00000030: c2b0 d6bb 0a72 2dbd 6f64 63bd 0e36 063e
00000040: 5af1 8839 cb38 49bd 5eb1 8dbd 4cd3 963c
00000050: 84e4 993c 1b19 213c e560 a43d 668f 993d
00000060: 1768 52bd 805b 0b3c 954e 883d c3eb 58bd
00000070: b573 f03d cc07 863d c62b 823d 787f d2bd
00000080: 6cc0 0e3d c970 2b3d e2cf 41bd e756 093e
00000090: 03db 5c3d 3721 1ebd 4152 28be d569 1ebd
000000a0: 3410 eabd f15f c8bd b259 073d 0424 ae3d
000000b0: 41c8 e8bd fdf0 85be d090 c7be fa62 7ebd
000000c0: 31b1 cd3a 6f08 cfbc fd42 613d d574 e3bc
000000d0: 6e64 dc3c 4be0 5abb caec ce3c 85ef 80bc
000000e0: 6a58 2fbd 260a 583d 5ec6 0cbd b58b 32bd
000000f0: 58fd b53d 00ac 5dbc b97e 103d 6563 a9bb
00000100: 6c51 d23d 61a4 14bb 934b e5bc d7bc 1f3d
00000110: fc4e 083d c79a 143d 62e5 81bd ae1f a93c
00000120: 8ee3 febd 802e f8bd b57e 98bd 02a0 603d
00000130: 8c29 b03d 8b3f d4bd 16d5 d2bc 09c0 343c
00000140: a1a5 9c3c d40e 53bc f28d c53d bf48 393d
00000150: c9a8 31be 7f28 833d d95f 953d e6a4 de3d
00000160: 3035 79bd 9fd2 793c 6719 32bd 933a 78be
00000170: 868e dc3c 889a 0b3e 2b12 94be 210f c3be
00000180: d55d 60be 0d6b 10be e0d8 00bc 897e 493c
00000190: e1b4 d13c 7b0d 0bbd 9424 053c e790 293c
000001a0: b594 e83d d24d b4bb 4a22 48bd 5b77 c7bd
000001b0: caae 64bc cf8c 683c b09e c6bd abb8 5bbc
000001c0: a63c 5fbd 4eb2 7c3c 050d 413d 140a e0bc
000001d0: f685 b8bd eded 42bd 6490 2dbd 175a 303d
000001e0: af06 453b 9c8e edbd 209c cbbd 6396 6dbd
000001f0: 7ffd 33be 9716 8cbd 88db 36bc 50d9 ba3b
00000200: fa61 1fbd 520b a2bd 4c1e cebd 6c32 5e3d
00000210: 7987 293d c7c0 de3b 7318 643d 879e c23c
00000220: 1d73 e03c 3d3f e43b 4929 173c 81dc f4bc
00000230: 4d01 69bd 0dfd be3c d6a8 d23b 6fcb ae3c
00000240: 2c9b 46bc 8dc2 0e3c 7e0d 04bd 5a83 cbbc
00000250: a625 ef3c df0e 143d fc1a ae3c fd7a 003c
00000260: 1573 c63c bfb5 d03d 66b2 7b3d b168 833b
00000270: effb d03d 437d de3d a9c3 c23d fbb7 9fbd
00000280: 95f3 aabc 58c1 9a3d dece ce3c 7968 893d
00000290: 14fd 71bd 3f06 113d fff4 453c 184c aebc
000002a0: 0723 6d3c 63a1 7dbd f1f3 18be 8e89 23bd
000002b0: 0265 00be 7ebc 2ebe 12b8 94bd 2f1d cabd
000002c0: 6402 18be 502a 67be 987c 48be 97c7 f7bd
000002d0: 8623 c83d 6b56 9b3d 8085 6bbb 0a5b eabc
000002e0: e61e 8c3c 3386 1d3e 8dd4 0a3e 55f2 c33d
000002f0: 7185 733d e49e bc3b d964 f53c 1395 ba3c
00000300: c9ab 693d aee5 163d 8566 893b d75e 433c
00000310: e302 bd3d 7b9e 1f3d d2f2 b6bc 8dd6 46be
00000320: fcb6 4d3d 967e 5fbc 6a5f 153d 63e0 323c
00000330: e9ec 0ebe 2fbb 45bd 9463 2e3c 5f4b 353c
00000340: 540b c8bd 093a 833a 922e 133d 3721 7cbc
00000350: 0994 dd3d 8b0c 913c 0258 94ba 090c d9bd
00000360: e3d2 a2bb 0627 90bd 5909 adbd e075 93bc
00000370: 5bef 15be e593 5fbe 5894 a2bd edcf 9fbd
00000380: d8f3 a13d 20df 973d 6b29 9ebc c1fb 61bd
00000390: 53fa 08bd 0da4 213d c4b5 8e3c 9a4d dabb
000003a0: 594d 103d 6021 8dbc e8af 513d 5758 583d
000003b0: 5330 943d 0173 f1bc c412 043d 1893 f43b
000003c0: e5a8 89bd b552 973c a354 e03d 7099 e33c
000003d0: 3f8e ebbd 24d4 ecbc 5836 aabd 73c2 18be
000003e0: b1a5 1ebd 8eb2 3abd c916 58bd 3780 7ebc
000003f0: 3ae0 af3d 67ae 8e3d 15c9 0d3d b437 88bd

bias f4 [10]
0.00568658 0.02473202 0.022689715 -0.023487214 0.010746715 0.014833661 -0.01940386 -0.03228738
-0.0057580085 -0.010813459
00000000: 7e56 ba3b ce9a ca3c c8df b93c 4268 c0bc
00000010: fd12 303c e208 733c d8f4 9ebc c63f 04bd
00000020: adad bcbb ef2a 31bc
